




******working on smallcellvariant **********



Found 2758 validated image filenames belonging to 2 classes.
Model: "sequential_5"
_________________________________________________________________
Layer (type)                 Output Shape              Param #   
=================================================================
conv2d_30 (Conv2D)           (None, 124, 124, 1)       76        
_________________________________________________________________
conv2d_31 (Conv2D)           (None, 120, 120, 1)       26        
_________________________________________________________________
max_pooling2d_10 (MaxPooling (None, 60, 60, 1)         0         
_________________________________________________________________
conv2d_32 (Conv2D)           (None, 56, 56, 1)         26        
_________________________________________________________________
conv2d_33 (Conv2D)           (None, 52, 52, 1)         26        
_________________________________________________________________
max_pooling2d_11 (MaxPooling (None, 26, 26, 1)         0         
_________________________________________________________________
conv2d_34 (Conv2D)           (None, 24, 24, 1)         10        
_________________________________________________________________
conv2d_35 (Conv2D)           (None, 22, 22, 1)         10        
_________________________________________________________________
flatten_5 (Flatten)          (None, 484)               0         
_________________________________________________________________
dense_15 (Dense)             (None, 1024)              496640    
_________________________________________________________________
dense_16 (Dense)             (None, 1024)              1049600   
_________________________________________________________________
dense_17 (Dense)             (None, 2)                 2050      
=================================================================
Total params: 1,548,464
Trainable params: 1,548,464
Non-trainable params: 0
_________________________________________________________________
WARNING:tensorflow:sample_weight modes were coerced from
  ...
    to  
  ['...']
WARNING:tensorflow:sample_weight modes were coerced from
  ...
    to  
  ['...']
Train for 173 steps, validate for 187 steps
…
