


************working on complicatingpaget**************


Found 2660 validated image filenames belonging to 2 classes.
Model: "sequential"
_________________________________________________________________
Layer (type)                 Output Shape              Param #   
=================================================================
conv2d (Conv2D)              (None, 124, 124, 1)       76        
_________________________________________________________________
conv2d_1 (Conv2D)            (None, 120, 120, 1)       26        
_________________________________________________________________
max_pooling2d (MaxPooling2D) (None, 60, 60, 1)         0         
_________________________________________________________________
conv2d_2 (Conv2D)            (None, 56, 56, 1)         26        
_________________________________________________________________
conv2d_3 (Conv2D)            (None, 52, 52, 1)         26        
_________________________________________________________________
max_pooling2d_1 (MaxPooling2 (None, 26, 26, 1)         0         
_________________________________________________________________
conv2d_4 (Conv2D)            (None, 24, 24, 1)         10        
_________________________________________________________________
conv2d_5 (Conv2D)            (None, 22, 22, 1)         10        
_________________________________________________________________
flatten (Flatten)            (None, 484)               0         
_________________________________________________________________
dense (Dense)                (None, 1024)              496640    
_________________________________________________________________
dense_1 (Dense)              (None, 1024)              1049600   
_________________________________________________________________
dense_2 (Dense)              (None, 2)                 2050      
=================================================================
Total params: 1,548,464
Trainable params: 1,548,464
Non-trainable params: 0
_________________________________________________________________
WARNING:tensorflow:From <ipython-input-9-200f60ed6ef1>:54: Model.fit_generator (from tensorflow.python.keras.engine.training) is deprecated and will be removed in a future version.
Instructions for updating:
…
